…
metrics","model","loss_function","optimizer","learning_rate","script","start","end","completed","output","source_code","context","type"
"5","runs/2022-05-24T13-44-56Z",0.8556,0.7452,0.7883,0.5814,1e-04,0.2,1024,6,6,"runs/2022-05-24T13-44-56Z/tfruns.d/metrics.json","Model: ""sequential""
___________________________________________________________________________________________
 Layer (type)                       Output Shape                    Param #     Trainable  
===========================================================================================
 xception (Functional)              (None, 7, 7, 2048)              20861480    N          
 global_average_pooling2d (GlobalAv  (None, 2048)                   0           Y          
 eragePooling2D)                                                                           
 dense_1 (Dense)                    (None, 1024)                    2098176     Y          
 activation (Activation)            (None, 1024)                    0           Y          
 dropout (Dropout)                  (None, 1024)                    0           Y          
 dense (Dense)                      (None, 50)                      51250       Y          
===========================================================================================
Total params: 23,010,906
Trainable params: 2,149,426
Non-trainable params: 20,861,480
___________________________________________________________________________________________","categorical_crossentropy","<keras.optimizers.optimizer_v2.adam.Adam object at 0x7f016818bd90>",9.99999974737875e-05,"finetuning.R",2022-05-24 13:44:56,2022-05-24 14:15:08,TRUE,"
…
The dropout rate was 
> cat(""The n_dense was "", FLAGS$n_dense)
The n_dense was  1024","runs/2022-05-24T11-47-30Z/tfruns.d/source.tar.gz","local","training"
"1","runs/2022-05-24T15-45-31Z",0.816,1.1594,0.7092,0.9123,1e-04,0.2,256,6,6,"runs/2022-05-24T15-45-31Z/tfruns.d/metrics.json","Model: ""sequential""
___________________________________________________________________________________________
 Layer (type)                       Output Shape                    Param #     Trainable  
===========================================================================================
 xception (Functional)              (None, 7, 7, 2048)              20861480    N          
 global_average_pooling2d (GlobalAv  (None, 2048)                   0           Y          
 eragePooling2D)                                                                           
 dense_1 (Dense)                    (None, 256)                     524544      Y          
 activation (Activation)            (None, 256)                     0           Y          
 dropout (Dropout)                  (None, 256)                     0           Y          
 dense (Dense)                      (None, 50)                      12850       Y          
===========================================================================================
Total params: 21,398,874
Trainable params: 537,394
Non-trainable params: 20,861,480
___________________________________________________________________________________________","categorical_crossentropy","<keras.optimizers.optimizer_v2.adam.Adam object at 0x7f015927b9d0>",9.99999974737875e-05,"finetuning.R",2022-05-24 15:45:31,2022-05-24 16:15:17,TRUE,"
…
